…
, 'YG_Y33QDZZHQABM', 'YG_Y82I5M2ZQAE6', 'YG_YAD0SMV1JVSZ', 'YG_YAZAZNRGEX2F', 'YG_YFZVI9E1G0DW', 'YG_YI5DOCOX0C5E', 'YG_YTO4FU4JR0AG', 'YG_YZXJYQ3CS6Q0', 'YG_Z32UH34LM0LA', 'YG_Z3A3HKNBEYL7', 'YG_Z5OVB5G1IJTD', 'YG_ZA6SGYY0PI21', 'YG_ZDSMBQ6XXWS9', 'YG_ZNTA4AR6D0X8', 'YG_ZTTUGTKF4J02']"
architecture,"==========================================================================================
Layer (type:depth-idx)                   Output Shape              Param #
==========================================================================================
BoxNet                                   [5, 1]                    9,703,648
├─Sequential: 1-1                        [5, 16, 50, 200, 200]     --
│    └─Conv3d: 2-1                       [5, 16, 50, 200, 200]     432
│    └─BatchNorm3d: 2-2                  [5, 16, 50, 200, 200]     32
│    └─LeakyReLU: 2-3                    [5, 16, 50, 200, 200]     --
├─MaxPool3d: 1-2                         [5, 16, 50, 100, 100]     --
├─Sequential: 1-3                        [5, 32, 50, 100, 100]     --
│    └─Conv3d: 2-4                       [5, 32, 50, 100, 100]     13,824
│    └─BatchNorm3d: 2-5                  [5, 32, 50, 100, 100]     64
│    └─LeakyReLU: 2-6                    [5, 32, 50, 100, 100]     --
├─MaxPool3d: 1-4                         [5, 32, 25, 50, 50]       --
├─Sequential: 1-5                        [5, 64, 25, 50, 50]       --
│    └─Conv3d: 2-7                       [5, 64, 25, 50, 50]       55,296
│    └─BatchNorm3d: 2-8                  [5, 64, 25, 50, 50]       128
│    └─LeakyReLU: 2-9                    [5, 64, 25, 50, 50]       --
├─MaxPool3d: 1-6                         [5, 64, 12, 25, 25]       --
├─Sequential: 1-7                        [5, 64, 12, 25, 25]       --
│    └─Conv3d: 2-10                      [5, 64, 12, 25, 25]       110,592
│    └─BatchNorm3d: 2-11                 [5, 64, 12, 25, 25]       128
│    └─LeakyReLU: 2-12                   [5, 64, 12, 25, 25]       --
├─MaxPool3d: 1-8                         [5, 64, 6, 12, 12]        --
├─Sequential: 1-9                        [5, 128, 6, 12, 12]       --
│    └─Conv3d: 2-13                      [5, 128, 6, 12, 12]       221,184
│    └─BatchNorm3d: 2-14                 [5, 128, 6, 12, 12]       256
│    └─LeakyReLU: 2-15                   [5, 128, 6, 12, 12]       --
├─Sequential: 1-10                       [5, 128, 6, 12, 12]       --
│    └─Conv3d: 2-16                      [5, 128, 6, 12, 12]       442,368
│    └─BatchNorm3d: 2-17                 [5, 128, 6, 12, 12]       256
│    └─LeakyReLU: 2-18                   [5, 128, 6, 12, 12]       --
├─MaxPool3d: 1-11                        [5, 128, 3, 6, 6]         --
├─Sequential: 1-12                       [5, 256, 3, 6, 6]         --
│    └─Conv3d: 2-19                      [5, 256, 3, 6, 6]         884,736
│    └─BatchNorm3d: 2-20                 [5, 256, 3, 6, 6]         512
│    └─LeakyReLU: 2-21                   [5, 256, 3, 6, 6]         --
├─Sequential: 1-13                       [5, 256, 3, 6, 6]         --
│    └─Conv3d: 2-22                      [5, 256, 3, 6, 6]         1,769,472
│    └─BatchNorm3d: 2-23                 [5, 256, 3, 6, 6]         512
│    └─LeakyReLU: 2-24                   [5, 256, 3, 6, 6]         --
├─MaxPool3d: 1-14                        [5, 256, 1, 3, 3]         --
├─Flatten: 1-15                          [5, 2304]                 --
├─Sequential: 1-16                       [5, 2304]                 --
│    └─Linear: 2-25                      [5, 2304]                 5,308,416
│    └─BatchNorm1d: 2-26                 [5, 2304]                 4,608
│    └─LeakyReLU: 2-27                   [5, 2304]                 --
├─Linear: 1-17                           [5, 1]                    2,305
==========================================================================================
Total params: 18,518,769
Trainable params: 18,518,769
Non-trainable params: 0
Total mult-adds (G): 64.63
==========================================================================================
Input size (MB): 40.00
Forward/backward pass size (MB): 4220.70
Params size (MB): 35.26
Estimated Total Size (MB): 4295.96
…
